…
odel': None, 'ema_update_freq': 1, 'ema_fp32': False}}
2022-07-30 14:04:01 | INFO | root | /data1/student/mlhan/myprojects/fairseq-uni/examples/speech_to_text/egs/aishell1/data/vocab.txt
2022-07-30 14:04:01 | INFO | fairseq.tasks.speech_to_text | dictionary size (/data1/student/mlhan/myprojects/fairseq-uni/examples/speech_to_text/egs/aishell1/data/vocab.txt): 4,234
2022-07-30 14:04:01 | INFO | fairseq_cli.train | S2TCifTransformerModel(
  (encoder): S2TCifConformerLayerPoolingEncoder(
    (dropout_module): FairseqDropout()
    (subsample): Conv2dSubsampler(
      (conv): ModuleList(
        (0): Conv2d(1, 128, kernel_size=(3, 3), stride=(2, 2))
        (1): ReLU()
      )
      (out): Sequential(
        (0): Linear(in_features=4992, out_features=256, bias=True)
      )
    )
    (embed_positions): RelPositionalEncoding()
    (linear): Linear(in_features=256, out_features=256, bias=True)
    (dropout): Dropout(p=0.1, inplace=False)
    (conformer_layers): ModuleList(
      (0): ConformerEncoderLayer(
        (ffn1): FeedForwardModule(
          (layer_norm): LayerNorm((256,), eps=1e-05, elementwise_affine=True)
          (w_1): Linear(in_features=256, out_features=2048, bias=True)
          (w_2): Linear(in_features=2048, out_features=256, bias=True)
          (dropout1): Dropout(p=0.1, inplace=False)
          (dropout2): Dropout(p=0.1, inplace=False)
          (activation): SiLU(inplace=True)
        )
        (self_attn_layer_norm): LayerNorm((256,), eps=1e-05, elementwise_affine=True)
        (self_attn_dropout): Dropout(p=0.1, inplace=False)
        (self_attn): RelPositionMultiHeadedAttention(
          (linear_q): Linear(in_features=256, out_features=256, bias=True)
          (linear_k): Linear(in_features=256, out_features=256, bias=True)
          (linear_v): Linear(in_features=256, out_features=256, bias=True)
          (linear_out): Linear(in_features=256, out_features=256, bias=True)
          (dropout): Dropout(p=0.1, inplace=False)
          (linear_pos): Linear(in_features=256, out_features=256, bias=False)
        )
        (conv_module): ConvolutionModule(
          (layer_norm): LayerNorm((256,), eps=1e-05, elementwise_affine=True)
          (pointwise_conv1): Conv1d(256, 512, kernel_size=(1,), stride=(1,), bias=False)
          (glu): GLU(dim=1)
          (depthwise_conv): Conv1d(256, 256, kernel_size=(15,), stride=(1,), padding=(7,), groups=256, bias=False)
          (batch_norm): BatchNorm1d(256, eps=1e-05, momentum=0.1, affine=True, track_running_stats=True)
          (activation): SiLU(inplace=True)
          (pointwise_conv2): Conv1d(256, 256, kernel_size=(1,), stride=(1,), bias=False)
          (dropout): Dropout(p=0.1, inplace=False)
        )
        (ffn2): FeedForwardModule(
          (layer_norm): LayerNorm((256,), eps=1e-05, elementwise_affine=True)
          (w_1): Linear(in_features=256, out_features=2048, bias=True)
          (w_2): Linear(in_features=2048, out_features=256, bias=True)
          (dropout1): Dropout(p=0.1, inplace=False)
          (dropout2): Dropout(p=0.1, inplace=False)
          (activation): SiLU(inplace=True)
        )
        (final_layer_norm): LayerNorm((256,), eps=1e-05, elementwise_affine=True)
      )
      (1): ConformerEncoderLayer(
        (ffn1): FeedForwardModule(
          (layer_norm): LayerNorm((256,), eps=1e-05, elementwise_affine=True)
          (w_1): Linear(in_features=256, out_features=2048, bias=True)
          (w_2): Linear(in_features=2048, out_features=256, bias=True)
          (dropout1): Dropout(p=0.1, inplace=False)
          (dropout2): Dropout(p=0.1, inplace=False)
          (activation): SiLU(inplace=True)
        )
        (self_attn_layer_norm): LayerNorm((256,), eps=1e-05, elementwise_affine=True)
        (self_attn_dropout): Dropout(p=0.1, inplace=False)
        (self_attn): RelPositionMultiHeadedAttention(
          (linear_q): Linear(in_features=256, out_features=256, bias=True)
          (linear_k): Linear(in_features=256, out_features=256, bias=True)
          (linear_v): Linear(in_features=256, out_features=256, bias=True)
          (linear_out): Linear(in_features=256, out_features=256, bias=True)
          (dropout): Dropout(p=0.1, inplace=False)
          (linear_pos): Linear(in_features=256, out_features=256, bias=False)
        )
        (conv_module): ConvolutionModule(
          (layer_norm): LayerNorm((256,), eps=1e-05, elementwise_affine=True)
          (pointwise_conv1): Conv1d(256, 512, kernel_size=(1,), stride=(1,), bias=False)
          (glu): GLU(dim=1)
          (depthwise_conv): Conv1d(256, 256, kernel_size=(15,), stride=(1,), padding=(7,), groups=256, bias=False)
          (batch_norm): BatchNorm1d(256, eps=1e-05, momentum=0.1, affine=True, track_running_stats=True)
          (activation): SiLU(inplace=True)
          (pointwise_conv2): Conv1d(256, 256, kernel_size=(1,), stride=(1,), bias=False)
          (dropout): Dropout(p=0.1, inplace=False)
        )
        (ffn2): FeedForwardModule(
          (layer_norm): LayerNorm((256,), eps=1e-05, elementwise_affine=True)
          (w_1): Linear(in_features=256, out_features=2048, bias=True)
          (w_2): Linear(in_features=2048, out_features=256, bias=True)
          (dropout1): Dropout(p=0.1, inplace=False)
          (dropout2): Dropout(p=0.1, inplace=False)
          (activation): SiLU(inplace=True)
        )
        (final_layer_norm): LayerNorm((256,), eps=1e-05, elementwise_affine=True)
      )
      (2): ConformerEncoderLayer(
        (ffn1): FeedForwardModule(
          (layer_norm): LayerNorm((256,), eps=1e-05, elementwise_affine=True)
          (w_1): Linear(in_features=256, out_features=2048, bias=True)
          (w_2): Linear(in_features=2048, out_features=256, bias=True)
          (dropout1): Dropout(p=0.1, inplace=False)
          (dropout2): Dropout(p=0.1, inplace=False)
          (activation): SiLU(inplace=True)
        )
        (self_attn_layer_norm): LayerNorm((256,), eps=1e-05, elementwise_affine=True)
        (self_attn_dropout): Dropout(p=0.1, inplace=False)
        (self_attn): RelPositionMultiHeadedAttention(
          (linear_q): Linear(in_features=256, out_features=256, bias=True)
          (linear_k): Linear(in_features=256, out_features=256, bias=True)
          (linear_v): Linear(in_features=256, out_features=256, bias=True)
          (linear_out): Linear(in_features=256, out_features=256, bias=True)
          (dropout): Dropout(p=0.1, inplace=False)
          (linear_pos): Linear(in_features=256, out_features=256, bias=False)
        )
        (conv_module): ConvolutionModule(
          (layer_norm): LayerNorm((256,), eps=1e-05, elementwise_affine=True)
          (pointwise_conv1): Conv1d(256, 512, kernel_size=(1,), stride=(1,), bias=False)
          (glu): GLU(dim=1)
          (depthwise_conv): Conv1d(256, 256, kernel_size=(15,), stride=(1,), padding=(7,), groups=256, bias=False)
          (batch_norm): BatchNorm1d(256, eps=1e-05, momentum=0.1, affine=True, track_running_stats=True)
          (activation): SiLU(inplace=True)
          (pointwise_conv2): Conv1d(256, 256, kernel_size=(1,), stride=(1,), bias=False)
          (dropout): Dropout(p=0.1, inplace=False)
        )
        (ffn2): FeedForwardModule(
          (layer_norm): LayerNorm((256,), eps=1e-05, elementwise_affine=True)
          (w_1): Linear(in_features=256, out_features=2048, bias=True)
          (w_2): Linear(in_features=2048, out_features=256, bias=True)
          (dropout1): Dropout(p=0.1, inplace=False)
          (dropout2): Dropout(p=0.1, inplace=False)
          (activation): SiLU(inplace=True)
        )
        (final_layer_norm): LayerNorm((256,), eps=1e-05, elementwise_affine=True)
      )
      (3): ConformerEncoderLayer(
        (ffn1): FeedForwardModule(
          (layer_norm): LayerNorm((256,), eps=1e-05, elementwise_affine=True)
          (w_1): Linear(in_features=256, out_features=2048, bias=True)
          (w_2): Linear(in_features=2048, out_features=256, bias=True)
          (dropout1): Dropout(p=0.1, inplace=False)
          (dropout2): Dropout(p=0.1, inplace=False)
          (activation): SiLU(inplace=True)
        )
        (self_attn_layer_norm): LayerNorm((256,), eps=1e-05, elementwise_affine=True)
        (self_attn_dropout): Dropout(p=0.1, inplace=False)
        (self_attn): RelPositionMultiHeadedAttention(
          (linear_q): Linear(in_features=256, out_features=256, bias=True)
          (linear_k): Linear(in_features=256, out_features=256, bias=True)
          (linear_v): Linear(in_features=256, out_features=256, bias=True)
          (linear_out): Linear(in_features=256, out_features=256, bias=True)
          (dropout): Dropout(p=0.1, inplace=False)
          (linear_pos): Linear(in_features=256, out_features=256, bias=False)
        )
        (conv_module): ConvolutionModule(
          (layer_norm): LayerNorm((256,), eps=1e-05, elementwise_affine=True)
          (pointwise_conv1): Conv1d(256, 512, kernel_size=(1,), stride=(1,), bias=False)
          (glu): GLU(dim=1)
          (depthwise_conv): Conv1d(256, 256, kernel_size=(15,), stride=(1,), padding=(7,), groups=256, bias=False)
          (batch_norm): BatchNorm1d(256, eps=1e-05, momentum=0.1, affine=True, track_running_stats=True)
          (activation): SiLU(inplace=True)
          (pointwise_conv2): Conv1d(256, 256, kernel_size=(1,), stride=(1,), bias=False)
          (dropout): Dropout(p=0.1, inplace=False)
        )
        (ffn2): FeedForwardModule(
          (layer_norm): LayerNorm((256,), eps=1e-05, elementwise_affine=True)
          (w_1): Linear(in_features=256, out_features=2048, bias=True)
          (w_2): Linear(in_features=2048, out_features=256, bias=True)
          (dropout1): Dropout(p=0.1, inplace=False)
          (dropout2): Dropout(p=0.1, inplace=False)
          (activation): SiLU(inplace=True)
        )
        (final_layer_norm): LayerNorm((256,), eps=1e-05, elementwise_affine=True)
      )
      (4): ConformerEncoderLayer(
        (ffn1): FeedForwardModule(
          (layer_norm): LayerNorm((256,), eps=1e-05, elementwise_affine=True)
          (w_1): Linear(in_features=256, out_features=2048, bias=True)
          (w_2): Linear(in_features=2048, out_features=256, bias=True)
          (dropout1): Dropout(p=0.1, inplace=False)
          (dropout2): Dropout(p=0.1, inplace=False)
          (activation): SiLU(inplace=True)
        )
        (self_attn_layer_norm): LayerNorm((256,), eps=1e-05, elementwise_affine=True)
        (self_attn_dropout): Dropout(p=0.1, inplace=False)
        (self_attn): RelPositionMultiHeadedAttention(
          (linear_q): Linear(in_features=256, out_features=256, bias=True)
          (linear_k): Linear(in_features=256, out_features=256, bias=True)
          (linear_v): Linear(in_features=256, out_features=256, bias=True)
          (linear_out): Linear(in_features=256, out_features=256, bias=True)
          (dropout): Dropout(p=0.1, inplace=False)
          (linear_pos): Linear(in_features=256, out_features=256, bias=False)
        )
        (conv_module): ConvolutionModule(
          (layer_norm): LayerNorm((256,), eps=1e-05, elementwise_affine=True)
          (pointwise_conv1): Conv1d(256, 512, kernel_size=(1,), stride=(1,), bias=False)
          (glu): GLU(dim=1)
          (depthwise_conv): Conv1d(256, 256, kernel_size=(15,), stride=(1,), padding=(7,), groups=256, bias=False)
          (batch_norm): BatchNorm1d(256, eps=1e-05, momentum=0.1, affine=True, track_running_stats=True)
          (activation): SiLU(inplace=True)
          (pointwise_conv2): Conv1d(256, 256, kernel_size=(1,), stride=(1,), bias=False)
          (dropout): Dropout(p=0.1, inplace=False)
        )
        (ffn2): FeedForwardModule(
          (layer_norm): LayerNorm((256,), eps=1e-05, elementwise_affine=True)
          (w_1): Linear(in_features=256, out_features=2048, bias=True)
          (w_2): Linear(in_features=2048, out_features=256, bias=True)
          (dropout1): Dropout(p=0.1, inplace=False)
          (dropout2): Dropout(p=0.1, inplace=False)
          (activation): SiLU(inplace=True)
        )
        (final_layer_norm): LayerNorm((256,), eps=1e-05, elementwise_affine=True)
      )
      (5): ConformerEncoderLayer(
        (ffn1): FeedForwardModule(
          (layer_norm): LayerNorm((256,), eps=1e-05, elementwise_affine=True)
          (w_1): Linear(in_features=256, out_features=2048, bias=True)
          (w_2): Linear(in_features=2048, out_features=256, bias=True)
          (dropout1): Dropout(p=0.1, inplace=False)
          (dropout2): Dropout(p=0.1, inplace=False)
          (activation): SiLU(inplace=True)
        )
        (self_attn_layer_norm): LayerNorm((256,), eps=1e-05, elementwise_affine=True)
        (self_attn_dropout): Dropout(p=0.1, inplace=False)
        (self_attn): RelPositionMultiHeadedAttention(
          (linear_q): Linear(in_features=256, out_features=256, bias=True)
          (linear_k): Linear(in_features=256, out_features=256, bias=True)
          (linear_v): Linear(in_features=256, out_features=256, bias=True)
          (linear_out): Linear(in_features=256, out_features=256, bias=True)
          (dropout): Dropout(p=0.1, inplace=False)
          (linear_pos): Linear(in_features=256, out_features=256, bias=False)
        )
        (conv_module): ConvolutionModule(
          (layer_norm): LayerNorm((256,), eps=1e-05, elementwise_affine=True)
          (pointwise_conv1): Conv1d(256, 512, kernel_size=(1,), stride=(1,), bias=False)
          (glu): GLU(dim=1)
          (depthwise_conv): Conv1d(256, 256, kernel_size=(15,), stride=(1,), padding=(7,), groups=256, bias=False)
          (batch_norm): BatchNorm1d(256, eps=1e-05, momentum=0.1, affine=True, track_running_stats=True)
          (activation): SiLU(inplace=True)
          (pointwise_conv2): Conv1d(256, 256, kernel_size=(1,), stride=(1,), bias=False)
          (dropout): Dropout(p=0.1, inplace=False)
        )
        (ffn2): FeedForwardModule(
          (layer_norm): LayerNorm((256,), eps=1e-05, elementwise_affine=True)
          (w_1): Linear(in_features=256, out_features=2048, bias=True)
          (w_2): Linear(in_features=2048, out_features=256, bias=True)
          (dropout1): Dropout(p=0.1, inplace=False)
          (dropout2): Dropout(p=0.1, inplace=False)
          (activation): SiLU(inplace=True)
        )
        (final_layer_norm): LayerNorm((256,), eps=1e-05, elementwise_affine=True)
      )
      (6): ConformerEncoderLayer(
        (ffn1): FeedForwardModule(
          (layer_norm): LayerNorm((256,), eps=1e-05, elementwise_affine=True)
          (w_1): Linear(in_features=256, out_features=2048, bias=True)
          (w_2): Linear(in_features=2048, out_features=256, bias=True)
          (dropout1): Dropout(p=0.1, inplace=False)
          (dropout2): Dropout(p=0.1, inplace=False)
          (activation): SiLU(inplace=True)
        )
        (self_attn_layer_norm): LayerNorm((256,), eps=1e-05, elementwise_affine=True)
        (self_attn_dropout): Dropout(p=0.1, inplace=False)
        (self_attn): RelPositionMultiHeadedAttention(
          (linear_q): Linear(in_features=256, out_features=256, bias=True)
          (linear_k): Linear(in_features=256, out_features=256, bias=True)
          (linear_v): Linear(in_features=256, out_features=256, bias=True)
          (linear_out): Linear(in_features=256, out_features=256, bias=True)
          (dropout): Dropout(p=0.1, inplace=False)
          (linear_pos): Linear(in_features=256, out_features=256, bias=False)
        )
        (conv_module): ConvolutionModule(
          (layer_norm): LayerNorm((256,), eps=1e-05, elementwise_affine=True)
          (pointwise_conv1): Conv1d(256, 512, kernel_size=(1,), stride=(1,), bias=False)
          (glu): GLU(dim=1)
          (depthwise_conv): Conv1d(256, 256, kernel_size=(15,), stride=(1,), padding=(7,), groups=256, bias=False)
          (batch_norm): BatchNorm1d(256, eps=1e-05, momentum=0.1, affine=True, track_running_stats=True)
          (activation): SiLU(inplace=True)
          (pointwise_conv2): Conv1d(256, 256, kernel_size=(1,), stride=(1,), bias=False)
          (dropout): Dropout(p=0.1, inplace=False)
        )
        (ffn2): FeedForwardModule(
          (layer_norm): LayerNorm((256,), eps=1e-05, elementwise_affine=True)
          (w_1): Linear(in_features=256, out_features=2048, bias=True)
          (w_2): Linear(in_features=2048, out_features=256, bias=True)
          (dropout1): Dropout(p=0.1, inplace=False)
          (dropout2): Dropout(p=0.1, inplace=False)
          (activation): SiLU(inplace=True)
        )
        (final_layer_norm): LayerNorm((256,), eps=1e-05, elementwise_affine=True)
      )
      (7): ConformerEncoderLayer(
        (ffn1): FeedForwardModule(
          (layer_norm): LayerNorm((256,), eps=1e-05, elementwise_affine=True)
          (w_1): Linear(in_features=256, out_features=2048, bias=True)
          (w_2): Linear(in_features=2048, out_features=256, bias=True)
          (dropout1): Dropout(p=0.1, inplace=False)
          (dropout2): Dropout(p=0.1, inplace=False)
          (activation): SiLU(inplace=True)
        )
        (self_attn_layer_norm): LayerNorm((256,), eps=1e-05, elementwise_affine=True)
        (self_attn_dropout): Dropout(p=0.1, inplace=False)
        (self_attn): RelPositionMultiHeadedAttention(
          (linear_q): Linear(in_features=256, out_features=256, bias=True)
          (linear_k): Linear(in_features=256, out_features=256, bias=True)
          (linear_v): Linear(in_features=256, out_features=256, bias=True)
          (linear_out): Linear(in_features=256, out_features=256, bias=True)
          (dropout): Dropout(p=0.1, inplace=False)
          (linear_pos): Linear(in_features=256, out_features=256, bias=False)
        )
        (conv_module): ConvolutionModule(
          (layer_norm): LayerNorm((256,), eps=1e-05, elementwise_affine=True)
          (pointwise_conv1): Conv1d(256, 512, kernel_size=(1,), stride=(1,), bias=False)
          (glu): GLU(dim=1)
          (depthwise_conv): Conv1d(256, 256, kernel_size=(15,), stride=(1,), padding=(7,), groups=256, bias=False)
          (batch_norm): BatchNorm1d(256, eps=1e-05, momentum=0.1, affine=True, track_running_stats=True)
          (activation): SiLU(inplace=True)
          (pointwise_conv2): Conv1d(256, 256, kernel_size=(1,), stride=(1,), bias=False)
          (dropout): Dropout(p=0.1, inplace=False)
        )
        (ffn2): FeedForwardModule(
          (layer_norm): LayerNorm((256,), eps=1e-05, elementwise_affine=True)
          (w_1): Linear(in_features=256, out_features=2048, bias=True)
          (w_2): Linear(in_features=2048, out_features=256, bias=True)
          (dropout1): Dropout(p=0.1, inplace=False)
          (dropout2): Dropout(p=0.1, inplace=False)
          (activation): SiLU(inplace=True)
        )
        (final_layer_norm): LayerNorm((256,), eps=1e-05, elementwise_affine=True)
      )
      (8): ConformerEncoderLayer(
        (ffn1): FeedForwardModule(
          (layer_norm): LayerNorm((256,), eps=1e-05, elementwise_affine=True)
          (w_1): Linear(in_features=256, out_features=2048, bias=True)
          (w_2): Linear(in_features=2048, out_features=256, bias=True)
          (dropout1): Dropout(p=0.1, inplace=False)
          (dropout2): Dropout(p=0.1, inplace=False)
          (activation): SiLU(inplace=True)
        )
        (self_attn_layer_norm): LayerNorm((256,), eps=1e-05, elementwise_affine=True)
        (self_attn_dropout): Dropout(p=0.1, inplace=False)
        (self_attn): RelPositionMultiHeadedAttention(
          (linear_q): Linear(in_features=256, out_features=256, bias=True)
          (linear_k): Linear(in_features=256, out_features=256, bias=True)
          (linear_v): Linear(in_features=256, out_features=256, bias=True)
          (linear_out): Linear(in_features=256, out_features=256, bias=True)
          (dropout): Dropout(p=0.1, inplace=False)
          (linear_pos): Linear(in_features=256, out_features=256, bias=False)
        )
        (conv_module): ConvolutionModule(
          (layer_norm): LayerNorm((256,), eps=1e-05, elementwise_affine=True)
          (pointwise_conv1): Conv1d(256, 512, kernel_size=(1,), stride=(1,), bias=False)
          (glu): GLU(dim=1)
          (depthwise_conv): Conv1d(256, 256, kernel_size=(15,), stride=(1,), padding=(7,), groups=256, bias=False)
          (batch_norm): BatchNorm1d(256, eps=1e-05, momentum=0.1, affine=True, track_running_stats=True)
          (activation): SiLU(inplace=True)
          (pointwise_conv2): Conv1d(256, 256, kernel_size=(1,), stride=(1,), bias=False)
          (dropout): Dropout(p=0.1, inplace=False)
        )
        (ffn2): FeedForwardModule(
          (layer_norm): LayerNorm((256,), eps=1e-05, elementwise_affine=True)
          (w_1): Linear(in_features=256, out_features=2048, bias=True)
          (w_2): Linear(in_features=2048, out_features=256, bias=True)
          (dropout1): Dropout(p=0.1, inplace=False)
          (dropout2): Dropout(p=0.1, inplace=False)
          (activation): SiLU(inplace=True)
        )
        (final_layer_norm): LayerNorm((256,), eps=1e-05, elementwise_affine=True)
      )
      (9): ConformerEncoderLayer(
        (ffn1): FeedForwardModule(
          (layer_norm): LayerNorm((256,), eps=1e-05, elementwise_affine=True)
          (w_1): Linear(in_features=256, out_features=2048, bias=True)
          (w_2): Linear(in_features=2048, out_features=256, bias=True)
          (dropout1): Dropout(p=0.1, inplace=False)
          (dropout2): Dropout(p=0.1, inplace=False)
          (activation): SiLU(inplace=True)
        )
        (self_attn_layer_norm): LayerNorm((256,), eps=1e-05, elementwise_affine=True)
        (self_attn_dropout): Dropout(p=0.1, inplace=False)
        (self_attn): RelPositionMultiHeadedAttention(
          (linear_q): Linear(in_features=256, out_features=256, bias=True)
          (linear_k): Linear(in_features=256, out_features=256, bias=True)
          (linear_v): Linear(in_features=256, out_features=256, bias=True)
          (linear_out): Linear(in_features=256, out_features=256, bias=True)
          (dropout): Dropout(p=0.1, inplace=False)
          (linear_pos): Linear(in_features=256, out_features=256, bias=False)
        )
        (conv_module): ConvolutionModule(
          (layer_norm): LayerNorm((256,), eps=1e-05, elementwise_affine=True)
          (pointwise_conv1): Conv1d(256, 512, kernel_size=(1,), stride=(1,), bias=False)
          (glu): GLU(dim=1)
          (depthwise_conv): Conv1d(256, 256, kernel_size=(15,), stride=(1,), padding=(7,), groups=256, bias=False)
          (batch_norm): BatchNorm1d(256, eps=1e-05, momentum=0.1, affine=True, track_running_stats=True)
          (activation): SiLU(inplace=True)
          (pointwise_conv2): Conv1d(256, 256, kernel_size=(1,), stride=(1,), bias=False)
          (dropout): Dropout(p=0.1, inplace=False)
        )
        (ffn2): FeedForwardModule(
          (layer_norm): LayerNorm((256,), eps=1e-05, elementwise_affine=True)
          (w_1): Linear(in_features=256, out_features=2048, bias=True)
          (w_2): Linear(in_features=2048, out_features=256, bias=True)
          (dropout1): Dropout(p=0.1, inplace=False)
          (dropout2): Dropout(p=0.1, inplace=False)
          (activation): SiLU(inplace=True)
        )
        (final_layer_norm): LayerNorm((256,), eps=1e-05, elementwise_affine=True)
      )
      (10): ConformerEncoderLayer(
        (ffn1): FeedForwardModule(
          (layer_norm): LayerNorm((256,), eps=1e-05, elementwise_affine=True)
          (w_1): Linear(in_features=256, out_features=2048, bias=True)
          (w_2): Linear(in_features=2048, out_features=256, bias=True)
          (dropout1): Dropout(p=0.1, inplace=False)
          (dropout2): Dropout(p=0.1, inplace=False)
          (activation): SiLU(inplace=True)
        )
        (self_attn_layer_norm): LayerNorm((256,), eps=1e-05, elementwise_affine=True)
        (self_attn_dropout): Dropout(p=0.1, inplace=False)
        (self_attn): RelPositionMultiHeadedAttention(
          (linear_q): Linear(in_features=256, out_features=256, bias=True)
          (linear_k): Linear(in_features=256, out_features=256, bias=True)
          (linear_v): Linear(in_features=256, out_features=256, bias=True)
          (linear_out): Linear(in_features=256, out_features=256, bias=True)
          (dropout): Dropout(p=0.1, inplace=False)
          (linear_pos): Linear(in_features=256, out_features=256, bias=False)
        )
        (conv_module): ConvolutionModule(
          (layer_norm): LayerNorm((256,), eps=1e-05, elementwise_affine=True)
          (pointwise_conv1): Conv1d(256, 512, kernel_size=(1,), stride=(1,), bias=False)
          (glu): GLU(dim=1)
          (depthwise_conv): Conv1d(256, 256, kernel_size=(15,), stride=(1,), padding=(7,), groups=256, bias=False)
          (batch_norm): BatchNorm1d(256, eps=1e-05, momentum=0.1, affine=True, track_running_stats=True)
          (activation): SiLU(inplace=True)
          (pointwise_conv2): Conv1d(256, 256, kernel_size=(1,), stride=(1,), bias=False)
          (dropout): Dropout(p=0.1, inplace=False)
        )
        (ffn2): FeedForwardModule(
          (layer_norm): LayerNorm((256,), eps=1e-05, elementwise_affine=True)
          (w_1): Linear(in_features=256, out_features=2048, bias=True)
          (w_2): Linear(in_features=2048, out_features=256, bias=True)
          (dropout1): Dropout(p=0.1, inplace=False)
          (dropout2): Dropout(p=0.1, inplace=False)
          (activation): SiLU(inplace=True)
        )
        (final_layer_norm): LayerNorm((256,), eps=1e-05, elementwise_affine=True)
      )
      (11): ConformerEncoderLayer(
        (ffn1): FeedForwardModule(
          (layer_norm): LayerNorm((256,), eps=1e-05, elementwise_affine=True)
          (w_1): Linear(in_features=256, out_features=2048, bias=True)
          (w_2): Linear(in_features=2048, out_features=256, bias=True)
          (dropout1): Dropout(p=0.1, inplace=False)
          (dropout2): Dropout(p=0.1, inplace=False)
          (activation): SiLU(inplace=True)
        )
        (self_attn_layer_norm): LayerNorm((256,), eps=1e-05, elementwise_affine=True)
        (self_attn_dropout): Dropout(p=0.1, inplace=False)
        (self_attn): RelPositionMultiHeadedAttention(
          (linear_q): Linear(in_features=256, out_features=256, bias=True)
          (linear_k): Linear(in_features=256, out_features=256, bias=True)
          (linear_v): Linear(in_features=256, out_features=256, bias=True)
          (linear_out): Linear(in_features=256, out_features=256, bias=True)
          (dropout): Dropout(p=0.1, inplace=False)
          (linear_pos): Linear(in_features=256, out_features=256, bias=False)
        )
        (conv_module): ConvolutionModule(
          (layer_norm): LayerNorm((256,), eps=1e-05, elementwise_affine=True)
          (pointwise_conv1): Conv1d(256, 512, kernel_size=(1,), stride=(1,), bias=False)
          (glu): GLU(dim=1)
          (depthwise_conv): Conv1d(256, 256, kernel_size=(15,), stride=(1,), padding=(7,), groups=256, bias=False)
          (batch_norm): BatchNorm1d(256, eps=1e-05, momentum=0.1, affine=True, track_running_stats=True)
          (activation): SiLU(inplace=True)
          (pointwise_conv2): Conv1d(256, 256, kernel_size=(1,), stride=(1,), bias=False)
          (dropout): Dropout(p=0.1, inplace=False)
        )
        (ffn2): FeedForwardModule(
          (layer_norm): LayerNorm((256,), eps=1e-05, elementwise_affine=True)
          (w_1): Linear(in_features=256, out_features=2048, bias=True)
          (w_2): Linear(in_features=2048, out_features=256, bias=True)
          (dropout1): Dropout(p=0.1, inplace=False)
          (dropout2): Dropout(p=0.1, inplace=False)
          (activation): SiLU(inplace=True)
        )
        (final_layer_norm): LayerNorm((256,), eps=1e-05, elementwise_affine=True)
      )
      (12): ConformerEncoderLayer(
        (ffn1): FeedForwardModule(
          (layer_norm): LayerNorm((256,), eps=1e-05, elementwise_affine=True)
          (w_1): Linear(in_features=256, out_features=2048, bias=True)
          (w_2): Linear(in_features=2048, out_features=256, bias=True)
          (dropout1): Dropout(p=0.1, inplace=False)
          (dropout2): Dropout(p=0.1, inplace=False)
          (activation): SiLU(inplace=True)
        )
        (self_attn_layer_norm): LayerNorm((256,), eps=1e-05, elementwise_affine=True)
        (self_attn_dropout): Dropout(p=0.1, inplace=False)
        (self_attn): RelPositionMultiHeadedAttention(
          (linear_q): Linear(in_features=256, out_features=256, bias=True)
          (linear_k): Linear(in_features=256, out_features=256, bias=True)
          (linear_v): Linear(in_features=256, out_features=256, bias=True)
          (linear_out): Linear(in_features=256, out_features=256, bias=True)
          (dropout): Dropout(p=0.1, inplace=False)
          (linear_pos): Linear(in_features=256, out_features=256, bias=False)
        )
        (conv_module): ConvolutionModule(
          (layer_norm): LayerNorm((256,), eps=1e-05, elementwise_affine=True)
          (pointwise_conv1): Conv1d(256, 512, kernel_size=(1,), stride=(1,), bias=False)
          (glu): GLU(dim=1)
          (depthwise_conv): Conv1d(256, 256, kernel_size=(15,), stride=(1,), padding=(7,), groups=256, bias=False)
          (batch_norm): BatchNorm1d(256, eps=1e-05, momentum=0.1, affine=True, track_running_stats=True)
          (activation): SiLU(inplace=True)
          (pointwise_conv2): Conv1d(256, 256, kernel_size=(1,), stride=(1,), bias=False)
          (dropout): Dropout(p=0.1, inplace=False)
        )
        (ffn2): FeedForwardModule(
          (layer_norm): LayerNorm((256,), eps=1e-05, elementwise_affine=True)
          (w_1): Linear(in_features=256, out_features=2048, bias=True)
          (w_2): Linear(in_features=2048, out_features=256, bias=True)
          (dropout1): Dropout(p=0.1, inplace=False)
          (dropout2): Dropout(p=0.1, inplace=False)
          (activation): SiLU(inplace=True)
        )
        (final_layer_norm): LayerNorm((256,), eps=1e-05, elementwise_affine=True)
      )
      (13): ConformerEncoderLayer(
        (ffn1): FeedForwardModule(
          (layer_norm): LayerNorm((256,), eps=1e-05, elementwise_affine=True)
          (w_1): Linear(in_features=256, out_features=2048, bias=True)
          (w_2): Linear(in_features=2048, out_features=256, bias=True)
          (dropout1): Dropout(p=0.1, inplace=False)
          (dropout2): Dropout(p=0.1, inplace=False)
          (activation): SiLU(inplace=True)
        )
        (self_attn_layer_norm): LayerNorm((256,), eps=1e-05, elementwise_affine=True)
        (self_attn_dropout): Dropout(p=0.1, inplace=False)
        (self_attn): RelPositionMultiHeadedAttention(
          (linear_q): Linear(in_features=256, out_features=256, bias=True)
          (linear_k): Linear(in_features=256, out_features=256, bias=True)
          (linear_v): Linear(in_features=256, out_features=256, bias=True)
          (linear_out): Linear(in_features=256, out_features=256, bias=True)
          (dropout): Dropout(p=0.1, inplace=False)
          (linear_pos): Linear(in_features=256, out_features=256, bias=False)
        )
        (conv_module): ConvolutionModule(
          (layer_norm): LayerNorm((256,), eps=1e-05, elementwise_affine=True)
          (pointwise_conv1): Conv1d(256, 512, kernel_size=(1,), stride=(1,), bias=False)
          (glu): GLU(dim=1)
          (depthwise_conv): Conv1d(256, 256, kernel_size=(15,), stride=(1,), padding=(7,), groups=256, bias=False)
          (batch_norm): BatchNorm1d(256, eps=1e-05, momentum=0.1, affine=True, track_running_stats=True)
          (activation): SiLU(inplace=True)
          (pointwise_conv2): Conv1d(256, 256, kernel_size=(1,), stride=(1,), bias=False)
          (dropout): Dropout(p=0.1, inplace=False)
        )
        (ffn2): FeedForwardModule(
          (layer_norm): LayerNorm((256,), eps=1e-05, elementwise_affine=True)
          (w_1): Linear(in_features=256, out_features=2048, bias=True)
          (w_2): Linear(in_features=2048, out_features=256, bias=True)
          (dropout1): Dropout(p=0.1, inplace=False)
          (dropout2): Dropout(p=0.1, inplace=False)
          (activation): SiLU(inplace=True)
        )
        (final_layer_norm): LayerNorm((256,), eps=1e-05, elementwise_affine=True)
      )
      (14): ConformerEncoderLayer(
        (ffn1): FeedForwardModule(
          (layer_norm): LayerNorm((256,), eps=1e-05, elementwise_affine=True)
          (w_1): Linear(in_features=256, out_features=2048, bias=True)
          (w_2): Linear(in_features=2048, out_features=256, bias=True)
          (dropout1): Dropout(p=0.1, inplace=False)
          (dropout2): Dropout(p=0.1, inplace=False)
          (activation): SiLU(inplace=True)
        )
        (self_attn_layer_norm): LayerNorm((256,), eps=1e-05, elementwise_affine=True)
        (self_attn_dropout): Dropout(p=0.1, inplace=False)
        (self_attn): RelPositionMultiHeadedAttention(
          (linear_q): Linear(in_features=256, out_features=256, bias=True)
          (linear_k): Linear(in_features=256, out_features=256, bias=True)
          (linear_v): Linear(in_features=256, out_features=256, bias=True)
          (linear_out): Linear(in_features=256, out_features=256, bias=True)
          (dropout): Dropout(p=0.1, inplace=False)
          (linear_pos): Linear(in_features=256, out_features=256, bias=False)
        )
        (conv_module): ConvolutionModule(
          (layer_norm): LayerNorm((256,), eps=1e-05, elementwise_affine=True)
          (pointwise_conv1): Conv1d(256, 512, kernel_size=(1,), stride=(1,), bias=False)
          (glu): GLU(dim=1)
          (depthwise_conv): Conv1d(256, 256, kernel_size=(15,), stride=(1,), padding=(7,), groups=256, bias=False)
          (batch_norm): BatchNorm1d(256, eps=1e-05, momentum=0.1, affine=True, track_running_stats=True)
          (activation): SiLU(inplace=True)
          (pointwise_conv2): Conv1d(256, 256, kernel_size=(1,), stride=(1,), bias=False)
          (dropout): Dropout(p=0.1, inplace=False)
        )
        (ffn2): FeedForwardModule(
          (layer_norm): LayerNorm((256,), eps=1e-05, elementwise_affine=True)
          (w_1): Linear(in_features=256, out_features=2048, bias=True)
          (w_2): Linear(in_features=2048, out_features=256, bias=True)
          (dropout1): Dropout(p=0.1, inplace=False)
          (dropout2): Dropout(p=0.1, inplace=False)
          (activation): SiLU(inplace=True)
        )
        (final_layer_norm): LayerNorm((256,), eps=1e-05, elementwise_affine=True)
      )
    )
    (cif): CifMiddleware(
      (conv): Conv1d(256, 256, kernel_size=(3,), stride=(1,), padding=(1,))
      (conv_dropout): Dropout(p=0.2, inplace=False)
      (weight_proj): Linear(in_features=256, out_features=1, bias=True)
    )
    (ctc_proj): Linear(in_features=256, out_features=4234, bias=True)
    (pooling_layer): MaxPool2d(kernel_size=(2, 1), stride=(2, 1), padding=0, dilation=1, ceil_mode=False)
  )
  (decoder): CifArTransformerDecoder(
    (dropout_module): FairseqDropout()
    (embed_tokens): Embedding(4234, 256, padding_idx=1)
    (project_in_dim): Linear(in_features=512, out_features=256, bias=False)
    (embed_positions): SinusoidalPositionalEmbedding()
    (layers): ModuleList(
      (0): TransformerDecoderLayerBaseDirectArgs(
        (dropout_module): FairseqDropout()
        (self_attn): MultiheadAttention(
          (dropout_module): FairseqDropout()
          (k_proj): Linear(in_features=256, out_features=256, bias=True)
          (v_proj): Linear(in_features=256, out_features=256, bias=True)
          (q_proj): Linear(in_features=256, out_features=256, bias=True)
          (out_proj): Linear(in_features=256, out_features=256, bias=True)
        )
        (activation_dropout_module): FairseqDropout()
        (self_attn_layer_norm): LayerNorm((256,), eps=1e-05, elementwise_affine=True)
        (fc1): Linear(in_features=256, out_features=2048, bias=True)
        (fc2): Linear(in_features=2048, out_features=256, bias=True)
        (final_layer_norm): LayerNorm((256,), eps=1e-05, elementwise_affine=True)
      )
      (1): TransformerDecoderLayerBaseDirectArgs(
        (dropout_module): FairseqDropout()
        (self_attn): MultiheadAttention(
          (dropout_module): FairseqDropout()
          (k_proj): Linear(in_features=256, out_features=256, bias=True)
          (v_proj): Linear(in_features=256, out_features=256, bias=True)
          (q_proj): Linear(in_features=256, out_features=256, bias=True)
          (out_proj): Linear(in_features=256, out_features=256, bias=True)
        )
        (activation_dropout_module): FairseqDropout()
        (self_attn_layer_norm): LayerNorm((256,), eps=1e-05, elementwise_affine=True)
        (fc1): Linear(in_features=256, out_features=2048, bias=True)
        (fc2): Linear(in_features=2048, out_features=256, bias=True)
        (final_layer_norm): LayerNorm((256,), eps=1e-05, elementwise_affine=True)
      )
    )
    (layer_norm): LayerNorm((256,), eps=1e-05, elementwise_affine=True)
    (project_out_dim): Linear(in_features=512, out_features=256, bias=False)
    (output_projection): Linear(in_features=256, out_features=4234, bias=False)
  )
)
2022-07-30 14:04:01 | INFO | fairseq_cli.train | task: SpeechToTextTask
2022-07-30 14:04:01 | INFO | fairseq_cli.train | model: S2TCifTransformerModel
2022-07-30 14:04:01 | INFO | fairseq_cli.train | criterion: CifCriterion
2022-07-30 14:04:01 | INFO | fairseq_cli.train | num. shared model params: 47,208,587 (num. trained: 47,208,587)
2022-07-30 14:04:01 | INFO | fairseq_cli.train | num. expert model params: 0 (num. trained: 0)
…
